policy_dqn.pth (torch, 17915 bytes, 4 tensors)

fc1.weight f4 [256, 9]
-0.26370746 0.26062554 0.09386658 0.19045134 -0.24159445 0.31742135 -0.18777125 0.0023422563
-0.13103834 -0.2528344 -0.28193456 0.15911588 0.0986176 0.09401818 -0.052168965 -0.16441426
-0.17656426 0.07221838 0.14704391 0.04028491 0.31347954 0.31632766 0.18372081 -0.19812159
-0.16832988 -0.31955856 -0.27972248 0.14475758 0.1677163 -0.11890428 0.28386056 -0.1968777
0.012887222 0.26288915 0.11944342 0.094651036 0.011710523 -0.30493274 0.20908792 -0.086211555
-0.14399314 -0.011996476 -0.22161588 0.1523182 0.19364294 0.16271216 -0.07379977 -0.22911592
0.21500336 0.20038919 0.21925323 -0.30751806 0.15130045 -0.028988145 0.28297552 -0.07917899
-0.2952514 -0.0613622 -0.035078596 -0.051805265 0.25776863 0.17544794 -0.02135266 0.14104067
-0.3198209 -0.086881034 0.239665 -0.32851255 0.21642257 -0.17726126 0.28983343 0.21132529
-0.16072342 -0.27079013 0.043435965 0.0017676679 0.12946598 0.30409378 0.22488713 0.31307393
-0.24699761 0.3250605 -0.083320454 -0.2627121 -0.12329512 0.26866496 -0.2905951 0.10794219
0.20140079 -0.07794358 0.12003641 0.24669461 0.25860935 0.14906208 -0.05002648 -0.0769966
-0.19214095 -0.3047655 -0.3623116 0.29375955 0.078271896 -0.26172054 0.32675025 -0.0035303698
0.2633657 -0.1583653 0.2278598 0.3093458 0.31349146 -0.118702196 -0.04358546 0.12760623
-0.27374405 -0.11039685 -0.2636548 -0.31149846 0.19092645 0.023423022 0.05001887 0.32306072
-0.067783594 0.2134724 -0.20387916 0.018546468 0.07416812 -0.22416137 0.10231961 -0.31852308
-0.30912673 0.046413615 0.29099968 0.13164455 -0.1445879 0.21294127 -0.21294518 -0.068467796
-0.21031894 0.2978154 0.2559819 0.17360848 -0.31946123 0.1887036 0.048849523 -0.12786509
-0.28383565 0.14897297 -0.25723994 0.20661841 0.2135167 -0.0844 0.27761456 -0.19527298
0.17626826 0.16923074 0.031881075 0.12565465 0.04162777 -0.057409335 -0.30007878 -0.013528678
-0.0016818274 0.118345015 0.19731303 -0.10109483 0.1348448 0.012247222 -0.30816102 0.012370609
-0.14430924 0.075751394 0.34196725 0.15834717 0.043584622 0.066170506 -0.33571142 0.3066368
0.06582564 -0.26834658 0.08632599 0.19794199 0.2900332 -0.035745915 -0.21675222 -0.13154976
0.07590401 -0.14204837 0.03878734 0.05373043 0.018041538 -0.30306727 0.04307739 -0.20923266
-0.010384202 -0.31296703 0.14083764 -0.312811 0.17878672 0.02590247 -0.105650626 0.24684103
0.2030965 -0.2208192 -0.11535609 0.07714628 0.11828158 0.025713153 0.22866924 0.25288492
0.2431627 0.00857011 0.036465514 -0.2797572 -0.21296638 -0.124510914 -0.12702939 0.09017203
-0.2438096 -0.022939613 -0.11277946 0.16146375 0.25041124 0.2627408 -0.27308717 0.14285213
-0.28948128 -0.010252198 -0.2902373 -0.15489051 0.20090115 -0.3112849 0.03954959 -0.21465299
0.10373819 -0.23684904 -0.014775417 0.32548106 0.17949924 0.18704095 -0.10427314 0.27398455
-0.0072863796 0.3216494 0.19364496 -0.27294302 -0.28700635 -0.12857303 -0.22157733 0.17066404
0.27207977 0.0877099 -0.112274766 0.028971275 -0.007688579 -0.31840706 0.013613837 -0.2827985
00000000: aa04 87be b670 853e 1f3d c03d ad05 433e
00000010: 8964 77be 0d85 a23e 1b47 40be 8a80 193b
00000020: ea2e 06be 8373 81be ba59 90be 46ef 223e
00000030: 06f8 c93d 9b8c c03d 20af 55bd 365c 28be
00000040: 43cd 34be 3be7 933d ae92 163e ca01 253d
00000050: 6480 a03e b3f5 a13e 4f21 3c3e 63e0 4abe
00000060: ab5e 2cbe 2e9d a3be c937 8fbe 553b 143e
00000070: d2bd 2b3e 1684 f3bd 2c56 913e 4f9a 49be
00000080: ed24 533c 6899 863e c09e f43d 67d8 c13d
00000090: 7edd 3f3c 2520 9cbe 251b 563e af8f b0bd
000000a0: f072 13be de8c 44bc 46ef 62be 4df9 1b3e
000000b0: 564a 463e 049e 263e 5524 97bd 5d9d 6abe
000000c0: d729 5c3e d332 4d3e eb83 603e 0273 9dbe
000000d0: 81ee 1a3e 8c78 edbc 2be2 903e 9828 a2bd
000000e0: 312b 97be ee56 7bbd 93ae 0fbd c231 54bd
000000f0: 40fa 833e a0a8 333e c6eb aebc f76c 103e
00000100: 91bf a3be afee b1bd be6a 753e cc32 a8be
00000110: e19d 5d3e fa83 35be 0c65 943e a865 583e
00000120: ae94 24be 01a5 8abe e9e9 313d 18b1 e73a
00000130: bb92 043e 2eb2 9b3e d048 663e 3a4b a03e
00000140: f1ec 7cbe 546e a63e eaa3 aabd 3382 86be
00000150: 2782 fcbd 748e 893e e2c8 94be cb10 dd3d
00000160: 023c 4e3e e2a0 9fbd a6d5 f53d 839d 7c3e
00000170: 7268 843e bba3 183e 91e8 4cbd 65b0 9dbd
00000180: 99c0 44be 390a 9cbe e880 b9be a767 963e
00000190: 044d a03d 3c00 86be cf4b a73e c75d 67bb
000001a0: ded7 863e 832a 22be 1454 693e 9362 9e3e
000001b0: f481 a03e 231a f3bd ab86 32bd 35ab 023e
000001c0: 2e28 8cbe be17 e2bd c3fd 86be ba7c 9fbe
000001d0: 3982 433e a3e1 bf3c 96e0 4c3d 3768 a53e
000001e0: 20d2 8abd 8298 5a3e b3c5 50be c3ee 973c
000001f0: 75e5 973d 8f8a 65be f28c d13d 7515 a3be
00000200: dc45 9ebe 341c 3e3d e9fd 943e d4cd 063e
00000210: da0e 14be 470d 5a3e 4d0e 5abe d838 8cbd
00000220: d95d 57be 437b 983e 0f10 833e 6cc6 313e
00000230: 6c90 a3be 843b 413e 7016 483d 11ef 02be
00000240: e852 91be 5f8c 183e f4b4 83be c793 533e
00000250: 1fa4 5a3e e8d9 acbd 7f23 8e3e a4f5 47be
00000260: ab7f 343e d34a 2d3e bb95 023d 9dab 003e
00000270: e181 2a3d 0d26 6bbd eda3 99be 63a7 5dbc
00000280: c370 dcba df5e f23d 6d0c 4a3e ce0a cfbd
00000290: c114 0a3e 92a8 483c 48c7 9dbe 18ae 4a3c
000002a0: cdc5 13be 8c23 9b3d 5516 af3e c325 223e
000002b0: ca85 323d 6784 873d 5ee2 abbe 80ff 9c3e
000002c0: 98cf 863d b964 89be aecb b03d 4eb1 4a3e
000002d0: 3b7f 943e 4f6a 12bd 4bf4 5dbe fbb4 06be
000002e0: 9073 9b3d 2175 11be 79df 1e3d 7014 5c3d
000002f0: d9cb 933c a22b 9bbe eb71 303d 1641 56be
00000300: 8022 2abc 373d a0be be37 103e c328 a0be
00000310: de13 373e 6b31 d43c 5b5f d8bd e5c3 7c3e
00000320: 87f8 4f3e 6e1e 62be d03f ecbd defe 9d3d
00000330: 9d3d f23d 64a4 d23c 4528 6a3e 227a 813e
00000340: a5ff 783e a669 0c3c dd5c 153d 563c 8fbe
00000350: dc13 5abe 94ff febd fe13 02be 1dac b83d
00000360: 39a9 79be dbeb bbbc ebf8 e6bd c156 253e
00000370: e735 803e f685 863e 15d2 8bbe d447 123e
00000380: e436 94be d6f8 27bc fc99 94be 9e9b 1ebe
00000390: 08b9 4d3e bc60 9fbe c0fe 213d fecd 5bbe
000003a0: b074 d43d 8e88 72be 9714 72bc 74a5 a63e
000003b0: a6ce 373e aa87 3f3e 288d d5bd b447 8c3e
000003c0: 95c2 eebb 3baf a43e dd4a 463e 30bf 8bbe
000003d0: 7ff2 92be a6a8 03be 2be5 62be 8ec2 2e3e
000003e0: 0a4e 8b3e 40a1 b33d 50f0 e5bd 2b55 ed3c
000003f0: 7af0 fbbb 4006 a3be 920c 5f3c f7ca 90be

fc1.bias f4 [256]
0.32291284 0.24094145 0.24827603 -0.22972548 0.21747474 -0.07360961 -0.004377141 0.030038709
0.030500231 -0.15115404 0.17395066 0.17451845 -0.12575357 0.045599565 -0.31724578 -0.31130588
-0.08669983 0.08123878 -0.078915186 0.23181067 0.1314978 -0.18702123 -0.30768502 0.2558175
0.3098016 0.15990257 0.11641525 -0.19144969 0.0051642107 -0.06362078 0.28848693 0.26775765
0.22302933 0.0136066675 0.2745976 0.18317436 -0.21608806 0.111820735 -0.21413009 0.25875953
0.19485909 -0.027880454 0.21924031 0.06176742 -0.2732909 0.2585901 -0.3420446 0.1851052
-0.075454816 0.25478935 0.17743908 0.07697363 -0.16799872 -0.11470644 0.17268 -0.2805203
0.19030726 0.20656458 -0.14272027 0.31168213 0.14208853 -0.30506083 0.016585149 -0.25111425
0.03399734 0.12886907 0.28518897 0.23559284 0.32684526 0.077820055 0.06671282 0.20775618
-0.050622225 -0.11781179 0.268218 -0.004606724 -0.279333 0.21260634 0.038198337 0.18366274
0.010816351 0.19474518 0.09159882 0.26503357 -0.08107788 -0.1711871 0.19857982 -0.040100463
0.19276007 -0.040288415 -0.34903088 -0.07340584 -0.051613733 0.23553962 -0.16887228 -0.3270975
-0.13178392 -0.028795356 0.15405053 -0.25291857 0.13623567 0.1099623 -0.07061108 0.017856717
-0.18424734 0.093249075 0.2651232 0.2465868 0.16501445 0.09217151 0.036934152 -0.017845163
-0.11225657 0.18582384 0.29783574 0.29397133 0.26155794 0.19285738 -0.19765466 -0.12029406
0.26434025 0.21796535 -0.13521098 0.27278474 0.14299142 -0.3194952 -0.07665416 0.111408696
-0.2507347 -0.03599211 -0.10053101 0.12486037 0.09132529 -0.21393153 0.13356735 -0.006561185
-0.07652543 -0.21182711 0.121667475 0.055591483 -0.22786081 -0.2433964 0.21877363 -0.13206533
0.062347755 -0.29257187 -0.2901786 0.23818246 0.24656834 0.055702083 -0.030694714 0.20899391
0.10308036 -0.27555248 0.28695375 -0.24086425 0.28001735 -0.12572134 -0.16397369 0.20867603
-0.05609213 -0.28909752 0.12647909 -0.18565245 0.0007727023 0.14128989 0.0109341545 -0.06520872
0.10107065 0.15582986 0.019144688 -0.27834514 -0.32267115 0.17452477 -0.045880716 -0.20634049
0.28423297 0.09603515 0.06208939 -0.009054176 0.16137666 0.23416188 -0.19836557 -0.04302408
-0.036898863 0.04884394 -0.29863816 0.082914665 0.2214139 0.3206863 -0.03516142 -0.016703103
-0.32147077 0.18693066 0.30492246 0.0899746 0.11173519 -0.3039027 0.31122786 -0.32105252
0.26808947 -0.18264197 0.19839914 -0.28095326 -0.081377305 -0.11090664 0.14089295 -0.033556014
-0.13220713 -0.31962913 -0.0045453603 0.06381153 0.12967393 0.04880492 -0.08929081 -0.25191814
0.19359171 -0.046205632 0.19329724 0.051971376 -0.28846776 -0.30867088 -0.28794256 0.09487217
-0.13854507 -0.033335134 0.115921855 0.14240389 -0.05861036 -0.2024119 -0.287979 -0.20531477
-0.0782896 0.012217204 0.19330552 0.1603731 0.23103942 -0.22319342 0.23699181 -0.25892434
0.25254747 -0.16849543 -0.00594382 -0.3514608 -0.16923703 -0.045246523 -0.14396858 -0.15557091
0.22447735 -0.028491868 -0.01983803 0.29073882 -0.17105277 -0.31912562 0.26947424 0.1148933
00000000: d554 a53e 5bb9 763e 123c 7e3e 283d 6bbe
00000010: b3b1 5e3e a3c0 96bd 1f6e 8fbb bd13 f63c
00000020: 9fdb f93c 20c8 1abe 1f20 323e f7b4 323e
00000030: 8bc5 00be 9cc6 3a3d 0a6e a2be 7c63 9fbe
00000040: ae8f b1bd 8460 a63d 499e a1bd c75f 6d3e
00000050: 5ca7 063e 7e82 3fbe e488 9dbe 83fa 823e
00000060: 519e 9e3e 80bd 233e 1e6b ee3d 630b 44be
00000070: 8a38 a93b 9d4b 82bd 8fb4 933e 8817 893e
00000080: cd61 643e 80ee 5e3c 0e98 8c3e 0f92 3b3e
00000090: 3046 5dbe 4502 e53d eb44 5bbe 217c 843e
000000a0: 2489 473e 8d65 e4bc 8880 603e d6ff 7c3d
000000b0: c9ec 8bbe ec65 843e 7820 afbe 388c 3d3e
000000c0: 0e88 9abd c073 823e 97b2 353e 5aa4 9d3d
000000d0: db07 2cbe 36eb eabd 07d3 303e 5ba0 8fbe
000000e0: e8df 423e aa85 533e 4325 12be cd94 9f3e
000000f0: a87f 113e ef30 9cbe 94dd 873c 0c92 80be
00000100: cb40 0b3d 41f6 033e 4a04 923e 403f 713e
00000110: 4358 a73e 1f60 9f3d bba0 883d 09be 543e
00000120: 4059 4fbd 4f47 f1bd df53 893e 00f4 96bb
00000130: bc04 8fbe 7ab5 593e dc75 1c3d 1612 3c3e
00000140: 1037 313c 486b 473e 2a98 bb3d 7bb2 873e
00000150: 290c a6bd ac4b 2fbe 8258 4b3e 6240 24bd
00000160: e562 453e 7705 25bd 2db4 b2be cd55 96bd
00000170: ec68 53bd 4c31 713e dbec 2cbe 5379 a7be
00000180: 5df2 06be 3de4 ebbc 6cbf 1d3e 8b7e 81be
00000190: 5d81 0b3e ea33 e13d 8b9c 90bd 4048 923c
000001a0: 56ab 3cbe 5ff9 be3d 3abe 873e 4081 7c3e
000001b0: 8cf9 283e 6bc4 bc3d 4448 173d 0530 92bc
000001c0: c6e6 e5bd 9b48 3e3e ed7d 983e 6983 963e
000001d0: ecea 853e 687c 453e fc65 4abe bb5c f6bd
000001e0: 9b57 873e 4f32 5f3e bf74 0abe 71aa 8b3e
000001f0: 586c 123e e094 a3be dbfc 9cbd 3e2a e43d
00000200: 4c60 80be 766c 13bd 34e3 cdbd cbb6 ff3d
00000210: c108 bb3d de10 5bbe e1c5 083e 35ff d6bb
00000220: 5db9 9cbd 35e9 58be cc2c f93d e5b3 633d
00000230: 5854 69be e83c 79be 3206 603e 223c 07be
00000240: 5c60 7f3d fbcb 95be 4a92 94be 1ae6 733e
00000250: 697c 7c3e de27 643d 7b73 fbbc 8002 563e
00000260: cc1b d33d 3715 8dbe 9aeb 923e 1ea5 76be
00000270: 6f5e 8f3e 18bd 00be b8e8 27be 2baf 553e
00000280: dcc0 65bd 9704 94be bc83 013e ad1b 3ebe
00000290: 2c8f 4a3a 4cae 103e 2b25 333c 268c 85bd
000002a0: 21fe ce3d dd91 1f3e 52d5 9c3c 4183 8ebe
000002b0: 2735 a5be 9fb6 323e 6bed 3bbd ec4a 53be
000002c0: fc86 913e 14ae c43d 7251 7e3d f757 14bc
000002d0: ec3f 253e 22c8 6f3e 5820 4bbe 053a 30bd
000002e0: 4323 17bd 9510 483d 1ae7 98be 2acf a93d
000002f0: 53ba 623e ff30 a43e 6c05 10bd f2d4 88bc
00000300: d197 a4be c06a 3f3e cc1e 9c3e 9a44 b83d
00000310: 6bd5 e43d 2299 9bbe 4259 9f3e ff60 a4be
00000320: 0643 893e 7f06 3bbe 2529 4b3e 1bd9 8fbe
00000330: 25a9 a6bd 0523 e3bd 3e46 103e 0872 09bd
00000340: 4e61 07be 6ea6 a3be 3ff1 94bb 9faf 823d
00000350: 3ec9 043e abe7 473d 1ade b6bd 6afb 80be
00000360: e83c 463e 1e42 3dbd b6ef 453e f0df 543d
00000370: 0cb2 93be 1c0a 9ebe 356d 93be 574c c23d
00000380: c2de 0dbe 6c8a 08bd 7068 ed3d 53d2 113e
00000390: 6b11 70bd 1145 4fbe fc71 93be 093e 52be
000003a0: 4c56 a0bd ab2a 483c e2f1 453e d938 243e
000003b0: 9995 6c3e d18c 64be fbad 723e bb91 84be
000003c0: e74d 813e 118a 2cbe 60c4 c2bb acf2 b3be
000003d0: 794c 2dbe 6b54 39bd 806c 13be fb4d 1fbe
000003e0: 64dd 653e c767 e9bc 5d83 a2bc b8db 943e
000003f0: 7528 2fbe 6f64 a3be 87f8 893e 2e4d eb3d

fc2.weight f4 [5, 256]
0.007247026 0.0316931 -0.04398175 -0.01238458 0.008908421 -0.03706033 -0.061640438 0.019701775
-0.013071867 0.0083622495 0.006020196 0.026350673 0.028853083 -0.018600293 -0.004837068 0.013264157
-0.04023346 -0.05851836 -0.012636903 -0.04524643 0.04091488 -0.019584782 0.052557424 -0.042310316
0.016211476 0.021458931 -0.050316818 -0.059497833 0.06678555 -0.059323553 0.015756927 -0.0226321
-0.007689981 -0.038234472 0.06760912 0.031914484 0.014085017 0.006154261 0.05694439 -0.01642813
-0.0061187344 -0.044425618 0.011718772 -0.054335352 -0.003906153 0.026554037 0.029797753 -0.062426157
0.03677313 0.05313632 -0.028652709 -0.017666403 0.019291027 0.009937964 0.02121482 0.02078928
0.03903808 -0.01779527 0.010904073 -0.04685067 -0.042336434 -0.054060124 -0.011603347 0.010916092
-0.0130888 -0.03869725 -0.039430127 -0.04055675 -0.048107557 -0.0032723495 -0.01113084 -0.020038508
-0.0041691437 -0.00077380316 0.045160867 0.04506316 -0.018699925 -0.037758328 0.024605677 -0.031659722
0.03323196 -0.007949129 -0.014998143 -0.02076358 0.00070498255 -0.019195566 -0.025197294 0.0057996768
0.02270761 0.024030719 -0.044736806 -0.05395904 0.010083562 0.02461549 -0.02648694 0.009772345
-0.00013355262 0.053860992 0.05200043 0.008003108 0.056752726 0.0032433367 -0.012141779 -0.049332514
0.04789073 -0.062431127 -0.021810345 -0.011306257 -0.024835547 -0.019343246 -0.023849312 0.0026021127
0.01894746 0.015792498 0.032850422 0.056326997 0.0069398507 0.008252189 0.03498364 -0.032301284
-0.047114387 -0.023095554 0.0015146519 -0.02151914 0.027938023 0.0006191737 -0.049717396 -0.0022090655
-0.010323164 0.043903895 0.046813868 -0.03573467 0.0042103576 0.014346457 -0.03192382 0.009356341
-0.018321235 -0.009252551 -0.049572553 0.009306929 -0.033404298 0.061501324 -0.058219824 0.0142490305
0.035132106 -0.03251037 0.05628038 -0.019185541 -0.0048912694 -0.014492753 -0.040129602 0.034972366
-0.0007187679 0.02267062 -0.06211731 -0.011126943 -0.0020796284 0.03301987 0.021761002 0.00048612917
0.013225664 0.058073267 0.018982789 0.022039674 0.05565867 0.03795959 -0.048433125 -0.048596516
0.054547694 -0.03527191 -0.027397279 -0.029389732 0.019204395 -0.03344465 0.06305585 0.03025915
0.026135983 0.036044862 -0.04216384 0.00480925 0.046164263 0.03596607 0.028238207 0.023287704
0.040064782 0.0074278847 -0.0069818194 -0.0072233975 0.05197847 -0.03446023 -0.030143172 -0.0035612697
-0.030566903 -0.0028650432 -0.0020158226 0.024707524 -0.04364961 -0.052226253 -0.055819057 0.028868243
0.058505356 0.042378947 0.0076618264 -0.024467425 0.020530362 -0.06333441 -0.0029739002 -0.028466394
0.058889903 -0.020997263 0.0059121596 0.048377007 -0.04030265 0.053350233 -0.0016735614 0.030735694
0.057118125 -0.010893376 -0.040152058 0.04436118 -0.02582982 -0.035181336 -0.06314614 0.004284685
0.023068056 0.0517383 0.02326601 0.0047480315 -0.033222474 -0.014542087 -0.01898789 -0.0605063
-0.005471509 0.013174042 0.028068114 0.00578462 0.007367883 -0.049956772 0.050092082 -0.060344264
0.02511578 -0.008580743 0.016700266 -0.02669609 -0.00129438 0.046169177 -0.037395194 -0.015649892
0.03848184 -0.05747581 0.017572744 0.028384104 -0.04007395 0.038760677 0.023021067 -0.011911778
00000000: 7678 ed3b a0d0 013d 3526 34bd b2e8 4abc
00000010: a0f4 113c 93cc 17bd af7a 7cbd 9e65 a13c
00000020: 622b 56bc d101 093c 1045 c53b 5edd d73c
00000030: 4d5d ec3c a45f 98bc 4480 9ebb e851 593c
00000040: d7cb 24bd f3b0 6fbd 030b 4fbc 5254 39bd
00000050: 5c96 273d 4470 a0bc 7446 573d 954d 2dbd
00000060: eecd 843c a4ca af3c 0219 4ebd 00b4 73bd
00000070: ddc6 883d 41fd 72bd ac14 813c f466 b9bc
00000080: 3cfc fbbb c09b 1cbd a676 8a3d c3b8 023d
00000090: d8c4 663c afa9 c93b 853e 693d 4994 86bc
000000a0: aa7f c8bb a3f7 35bd 1800 403c bf8e 5ebd
000000b0: 5ffe 7fbb da87 d93c 6b1a f43c 92b2 7fbd
000000c0: 6c9f 163d 78a5 593d 16b9 eabc 22b9 90bc
000000d0: 3708 9e3c d8d2 223c b4ca ad3c 484e aa3c
000000e0: 65e6 1f3d 63c7 91bc ffa6 323c 7de6 3fbd
000000f0: f868 2dbd 266e 5dbd f71b 3ebc 69d9 323c
00000100: 6872 56bc 0281 1ebd 7c81 21bd d61e 26bd
00000110: 6e0c 45bd ea74 56bb 205e 36bc cc27 a4bc
00000120: 509d 88bb 0dd9 4aba 9afa 383d 2694 383d
00000130: 9630 99bc 7aa8 1abd d891 c93c a0ad 01bd
00000140: 3c1e 083d 103d 02bc c5ba 75bc 6218 aabc
00000150: 94ce 383a 0540 9dbc 8e6a cebc 370b be3b
00000160: 4f05 ba3c 12dc c43c f13d 37bd 2804 5dbd
00000170: 8635 253c 6da6 c93c 24fb d8bc 301c 203c
00000180: 420a 0cb9 589d 5c3d 67fe 543d 781f 033c
00000190: 8c75 683d 298e 543b 50ee 46bc e410 4abd
000001a0: 1229 443d c8b7 7fbd 9cab b2bc e13d 39bc
000001b0: eb73 cbbc ba75 9ebc a25f c3bc 3588 2a3b
000001c0: b437 9b3c 455f 813c 2a8e 063d 23b7 663d
000001d0: b067 e33b 3034 073c 014b 0f3d 5a4e 04bd
000001e0: 04fb 40bd e332 bdbc 4987 c63a e848 b0bc
000001f0: 48de e43c 0b50 223a 78a4 4bbd f8c5 10bb
00000200: 7d22 29bc 92d4 333d e6bf 3f3d 845e 12bd
00000210: 0af7 893b 670d 6b3c 8dc2 02bd 574b 193c
00000220: 6a16 96bc 0398 17bc 970c 4bbd 177c 183c
00000230: f2d2 08bd d0e8 7b3d e977 6ebd c474 693c
00000240: afe6 0f3d 9829 05bd 4186 663d ff2a 9dbc
00000250: f146 a0bb 0373 6dbc f05e 24bd 2f3f 0f3d
00000260: b26b 3cba bcb7 b93c b86e 7ebd c84d 36bc
00000270: 604a 08bb d83f 073d 2144 b23c 27df fe39
00000280: 75b0 583c 3cde 6d3d cb81 9b3c 8c8c b43c
00000290: 58fa 633d 847b 1b3d d061 46bd 240d 47bd
000002a0: 676d 5f3d 4779 10bd 4270 e0bc bcc2 f0bc
000002b0: 8952 9d3c 42fd 08bd 6d23 813d 09e2 f73c
000002c0: 211b d63c c7a3 133d feb3 2cbd ea96 9d3b
000002d0: bd16 3d3d 2851 133d d053 e73c dbc5 be3c
000002e0: f81a 243d 9d65 f33b bfc7 e4bb 40b2 ecbb
000002f0: 60e7 543d 2c26 0dbd d0ee f6bc 3164 69bb
00000300: 7167 fabc 73c3 3bbb e41b 04bb 6f67 ca3c
00000310: efc9 32bd 32eb 55bd 86a2 64bd 187d ec3c
00000320: 50a3 6f3d 8c95 2d3d 0f10 fb3b e96f c8bc
00000330: 4a2f a83c 79b5 81bd c4e5 42bb 5b32 e9bc
00000340: 8a36 713d 7402 acbc caba c13b f826 463d
00000350: 6414 25bd c685 5a3d 675b dbba 6cc9 fb3c
00000360: b2f4 693d 217a 32bc 7c76 24bd 12b4 353d
00000370: 0f99 d3bc 4e1a 10bd c352 81bd 8b66 8c3b
00000380: 38f9 bc3c 8aeb 533d 5c98 be3c 6095 9b3b
00000390: 4a14 08bd ef41 6ebc 7e8c 9bbc 74d5 77bd
000003a0: 584a b3bb f0d7 573c 1aef e53c e98c bd3b
000003b0: 486e f13b 799f 4cbd 5b2d 4d3d 8c2b 77bd
000003c0: 9cbf cd3c 3f96 0cbc ffce 883c c2b1 dabc
000003d0: 30a8 a9ba e41b 3d3d b42b 19bd 3434 80bc
000003e0: 229f 1d3d c16b 6bbd b7f4 8f3c c885 e83c
000003f0: 9524 24bd 84c3 1e3d ad96 bc3c 9e29 43bc

fc2.bias f4 [5]
0.044678885 0.052986354 -0.016001282 0.0049937433 0.048731524
00000000: 3501 373d 3808 593d 1f15 83bc 8ea2 a33b
00000010: b59a 473d
